…
2020-02-03 11:11:50.963259: I tensorflow/compiler/xla/service/service.cc:168] XLA service 0x557fcfbd7bc0 initialized for platform Host (this does not guarantee that XLA will be used). Devices:
2020-02-03 11:11:50.963295: I tensorflow/compiler/xla/service/service.cc:176]   StreamExecutor device (0): Host, Default Version
X_train.shape :  (425, 100, 1000, 1)
X_test.shape :  (75, 100, 1000, 1)
Y_train.shape :  (425, 5050)
Y_test.shape :  (75, 5050)
Model: "sequential_1"
_________________________________________________________________
Layer (type)                 Output Shape              Param #   
=================================================================
conv2d_1 (Conv2D)            (None, 97, 1000, 1024)    5120      
_________________________________________________________________
batch_normalization_1 (Batch (None, 97, 1000, 1024)    4096      
_________________________________________________________________
activation_1 (Activation)    (None, 97, 1000, 1024)    0         
_________________________________________________________________
dropout_1 (Dropout)          (None, 97, 1000, 1024)    0         
_________________________________________________________________
average_pooling2d_1 (Average (None, 97, 1000, 1024)    0         
_________________________________________________________________
conv2d_2 (Conv2D)            (None, 94, 1000, 1024)    4195328   
_________________________________________________________________
batch_normalization_2 (Batch (None, 94, 1000, 1024)    4096      
_________________________________________________________________
activation_2 (Activation)    (None, 94, 1000, 1024)    0         
_________________________________________________________________
dropout_2 (Dropout)          (None, 94, 1000, 1024)    0         
_________________________________________________________________
average_pooling2d_2 (Average (None, 94, 250, 1024)     0         
_________________________________________________________________
conv2d_3 (Conv2D)            (None, 91, 250, 128)      524416    
_________________________________________________________________
batch_normalization_3 (Batch (None, 91, 250, 128)      512       
_________________________________________________________________
activation_3 (Activation)    (None, 91, 250, 128)      0         
_________________________________________________________________
dropout_3 (Dropout)          (None, 91, 250, 128)      0         
_________________________________________________________________
average_pooling2d_3 (Average (None, 91, 62, 128)       0         
_________________________________________________________________
conv2d_4 (Conv2D)            (None, 88, 62, 128)       65664     
_________________________________________________________________
batch_normalization_4 (Batch (None, 88, 62, 128)       512       
_________________________________________________________________
activation_4 (Activation)    (None, 88, 62, 128)       0         
_________________________________________________________________
dropout_4 (Dropout)          (None, 88, 62, 128)       0         
_________________________________________________________________
average_pooling2d_4 (Average (None, 88, 31, 128)       0         
_________________________________________________________________
conv2d_5 (Conv2D)            (None, 85, 31, 128)       65664     
_________________________________________________________________
batch_normalization_5 (Batch (None, 85, 31, 128)       512       
_________________________________________________________________
activation_5 (Activation)    (None, 85, 31, 128)       0         
_________________________________________________________________
dropout_5 (Dropout)          (None, 85, 31, 128)       0         
_________________________________________________________________
average_pooling2d_5 (Average (None, 85, 15, 128)       0         
_________________________________________________________________
conv2d_6 (Conv2D)            (None, 82, 15, 128)       65664     
_________________________________________________________________
batch_normalization_6 (Batch (None, 82, 15, 128)       512       
_________________________________________________________________
activation_6 (Activation)    (None, 82, 15, 128)       0         
_________________________________________________________________
dropout_6 (Dropout)          (None, 82, 15, 128)       0         
_________________________________________________________________
average_pooling2d_6 (Average (None, 82, 7, 128)        0         
_________________________________________________________________
conv2d_7 (Conv2D)            (None, 79, 7, 128)        65664     
_________________________________________________________________
batch_normalization_7 (Batch (None, 79, 7, 128)        512       
_________________________________________________________________
activation_7 (Activation)    (None, 79, 7, 128)        0         
_________________________________________________________________
dropout_7 (Dropout)          (None, 79, 7, 128)        0         
_________________________________________________________________
average_pooling2d_7 (Average (None, 79, 3, 128)        0         
_________________________________________________________________
conv2d_8 (Conv2D)            (None, 76, 3, 128)        65664     
_________________________________________________________________
batch_normalization_8 (Batch (None, 76, 3, 128)        512       
_________________________________________________________________
activation_8 (Activation)    (None, 76, 3, 128)        0         
_________________________________________________________________
dropout_8 (Dropout)          (None, 76, 3, 128)        0         
_________________________________________________________________
average_pooling2d_8 (Average (None, 76, 1, 128)        0         
_________________________________________________________________
conv2d_9 (Conv2D)            (None, 73, 1, 128)        65664     
_________________________________________________________________
batch_normalization_9 (Batch (None, 73, 1, 128)        512       
_________________________________________________________________
activation_9 (Activation)    (None, 73, 1, 128)        0         
_________________________________________________________________
dropout_9 (Dropout)          (None, 73, 1, 128)        0         
_________________________________________________________________
average_pooling2d_9 (Average (None, 73, 1, 128)        0         
_________________________________________________________________
conv2d_10 (Conv2D)           (None, 70, 1, 128)        65664     
_________________________________________________________________
batch_normalization_10 (Batc (None, 70, 1, 128)        512       
_________________________________________________________________
activation_10 (Activation)   (None, 70, 1, 128)        0         
_________________________________________________________________
dropout_10 (Dropout)         (None, 70, 1, 128)        0         
_________________________________________________________________
average_pooling2d_10 (Averag (None, 70, 1, 128)        0         
_________________________________________________________________
flatten_1 (Flatten)          (None, 8960)              0         
_________________________________________________________________
dense_1 (Dense)              (None, 5050)              45253050  
=================================================================
Total params: 50,449,850
Trainable params: 50,443,706
Non-trainable params: 6,144
_________________________________________________________________
None
Train on 425 samples, validate on 75 samples
Epoch 1/35

 20/425 [>.............................] - ETA: 31:14 - loss: 0.5665 - accuracy: 0.0000e+00
 40/425 [=>............................] - ETA: 29:15 - loss: 0.4316 - accuracy: 0.0000e+00
…
