…
2020-02-05 16:43:45.733799: I tensorflow/compiler/xla/service/service.cc:176]   StreamExecutor device (0): Host, Default Version
X_train.shape :  (24335, 100, 1000, 1)
X_test.shape :  (24335, 100, 100, 1)
Y_train_cub.shape :  (24335, 100, 100, 1)
Y_test_cub.shape :  (4295, 100, 100, 1)
Y_train_flatten.shape :  (24335, 4950)
Y_test_flatten.shape :  (4295, 4950)
Model: "sequential_1"
_________________________________________________________________
Layer (type)                 Output Shape              Param #   
=================================================================
conv2d_1 (Conv2D)            (None, 98, 998, 10)       100       
_________________________________________________________________
batch_normalization_1 (Batch (None, 98, 998, 10)       40        
_________________________________________________________________
activation_1 (Activation)    (None, 98, 998, 10)       0         
_________________________________________________________________
max_pooling2d_1 (MaxPooling2 (None, 49, 499, 10)       0         
_________________________________________________________________
conv2d_2 (Conv2D)            (None, 47, 497, 5)        455       
_________________________________________________________________
batch_normalization_2 (Batch (None, 47, 497, 5)        20        
_________________________________________________________________
activation_2 (Activation)    (None, 47, 497, 5)        0         
_________________________________________________________________
max_pooling2d_2 (MaxPooling2 (None, 23, 248, 5)        0         
_________________________________________________________________
conv2d_3 (Conv2D)            (None, 21, 246, 5)        230       
_________________________________________________________________
batch_normalization_3 (Batch (None, 21, 246, 5)        20        
_________________________________________________________________
activation_3 (Activation)    (None, 21, 246, 5)        0         
_________________________________________________________________
max_pooling2d_3 (MaxPooling2 (None, 10, 123, 5)        0         
_________________________________________________________________
conv2d_4 (Conv2D)            (None, 8, 121, 1)         46        
_________________________________________________________________
batch_normalization_4 (Batch (None, 8, 121, 1)         4         
_________________________________________________________________
activation_4 (Activation)    (None, 8, 121, 1)         0         
_________________________________________________________________
max_pooling2d_4 (MaxPooling2 (None, 4, 60, 1)          0         
_________________________________________________________________
flatten_1 (Flatten)          (None, 240)               0         
_________________________________________________________________
dense_1 (Dense)              (None, 4950)              1192950   
=================================================================
Total params: 1,193,865
Trainable params: 1,193,823
Non-trainable params: 42
_________________________________________________________________
None
Train on 24335 samples, validate on 4295 samples
Epoch 1/200

   20/24335 [..............................] - ETA: 23:34 - loss: 0.2260 - accuracy: 0.0000e+00
   40/24335 [..............................] - ETA: 17:12 - loss: 0.1757 - accuracy: 0.0000e+00
…
